ros_ws/src/crazyswarm/scripts/run_DATT/Controllers/gainTune/model.pth (torch, 1619 bytes, 3 tensors)

linear1.weight f4 [3, 5]
0	0xbe17bbc8	-0.14817727
1	0x3e298aa7	0.16556798
2	0xbdf2e529	-0.11860115
3	0xbdf30a0f	-0.11867153
4	0x3eb1e90c	0.34748113
5	0xbd8d9ec8	-0.06915051
6	0x3dc80281	0.097661026
7	0xbdba1cd0	-0.09087527
8	0x3e399704	0.18124014
9	0x3f0d5570	0.5520849
10	0xbdd67454	-0.104714066
11	0x3de37a3b	0.11107298
12	0xbdadddd2	-0.084895745
13	0xbe65e50c	-0.22450656
14	0xbec14252	-0.3774591

linear1.bias f4 [3]
0	0x4066bda9	3.605326
1	0x4042d2d3	3.0441177
2	0xc02a6c98	-2.662878

linear2.weight f4 [1, 3]
0	0x3e8951c4	0.26820195
1	0x3e6b21fe	0.22962186
2	0xbecc0e46	-0.3985464
